{"class_name": "Functional", "config": {"name": "resnet", "layers": [{"class_name": "InputLayer", "config": {"batch_input_shape": [null, 64, 64, 3], "dtype": "float32", "sparse": false, "ragged": false, "name": "input_2"}, "name": "input_2", "inbound_nodes": []}, {"class_name": "BatchNormalization", "config": {"name": "batch_normalization_42", "trainable": true, "dtype": "float32", "axis": [3], "momentum": 0.9, "epsilon": 2e-05, "center": true, "scale": true, "beta_initializer": {"class_name": "Zeros", "config": {}}, "gamma_initializer": {"class_name": "Ones", "config": {}}, "moving_mean_initializer": {"class_name": "Zeros", "config": {}}, "moving_variance_initializer": {"class_name": "Ones", "config": {}}, "beta_regularizer": null, "gamma_regularizer": null, "beta_constraint": null, "gamma_constraint": null}, "name": "batch_normalization_42", "inbound_nodes": [[["input_2", 0, 0, {}]]]}, {"class_name": "Conv2D", "config": {"name": "conv2d_43", "trainable": true, "dtype": "float32", "filters": 64, "kernel_size": [5, 5], "strides": [1, 1], "padding": "same", "data_format": "channels_last", "dilation_rate": [1, 1], "groups": 1, "activation": "linear", "use_bias": false, "kernel_initializer": {"class_name": "GlorotUniform", "config": {"seed": null}}, "bias_initializer": {"class_name": "Zeros", "config": {}}, "kernel_regularizer": {"class_name": "L2", "config": {"l2": 0.0005000000237487257}}, "bias_regularizer": null, "activity_regularizer": null, "kernel_constraint": null, "bias_constraint": null}, "name": "conv2d_43", "inbound_nodes": [[["batch_normalization_42", 0, 0, {}]]]}, {"class_name": "BatchNormalization", "config": {"name": "batch_normalization_43", "trainable": true, "dtype": "float32", "axis": [3], "momentum": 0.9, "epsilon": 2e-05, "center": true, "scale": true, "beta_initializer": {"class_name": "Zeros", "config": {}}, "gamma_initializer": {"class_name": "Ones", "config": {}}, "moving_mean_initializer": {"class_name": "Zeros", "config": {}}, "moving_variance_initializer": {"class_name": "Ones", "config": {}}, "beta_regularizer": null, "gamma_regularizer": null, "beta_constraint": null, "gamma_constraint": null}, "name": "batch_normalization_43", "inbound_nodes": [[["conv2d_43", 0, 0, {}]]]}, {"class_name": "Activation", "config": {"name": "activation_42", "trainable": true, "dtype": "float32", "activation": "relu"}, "name": "activation_42", "inbound_nodes": [[["batch_normalization_43", 0, 0, {}]]]}, {"class_name": "ZeroPadding2D", "config": {"name": "zero_padding2d_1", "trainable": true, "dtype": "float32", "padding": [[1, 1], [1, 1]], "data_format": "channels_last"}, "name": "zero_padding2d_1", "inbound_nodes": [[["activation_42", 0, 0, {}]]]}, {"class_name": "MaxPooling2D", "config": {"name": "max_pooling2d_1", "trainable": true, "dtype": "float32", "pool_size": [3, 3], "padding": "valid", "strides": [2, 2], "data_format": "channels_last"}, "name": "max_pooling2d_1", "inbound_nodes": [[["zero_padding2d_1", 0, 0, {}]]]}, {"class_name": "BatchNormalization", "config": {"name": "batch_normalization_44", "trainable": true, "dtype": "float32", "axis": [3], "momentum": 0.9, "epsilon": 2e-05, "center": true, "scale": true, "beta_initializer": {"class_name": "Zeros", "config": {}}, "gamma_initializer": {"class_name": "Ones", "config": {}}, "moving_mean_initializer": {"class_name": "Zeros", "config": {}}, "moving_variance_initializer": {"class_name": "Ones", "config": {}}, "beta_regularizer": null, "gamma_regularizer": null, "beta_constraint": null, "gamma_constraint": null}, "name": "batch_normalization_44", "inbound_nodes": [[["max_pooling2d_1", 0, 0, {}]]]}, {"class_name": "Activation", "config": {"name": "activation_43", "trainable": true, "dtype": "float32", "activation": "relu"}, "name": "activation_43", "inbound_nodes": [[["batch_normalization_44", 0, 0, {}]]]}, {"class_name": "Conv2D", "config": {"name": "conv2d_44", "trainable": true, "dtype": "float32", "filters": 32, "kernel_size": [1, 1], "strides": [1, 1], "padding": "valid", "data_format": "channels_last", "dilation_rate": [1, 1], "groups": 1, "activation": "linear", "use_bias": false, "kernel_initializer": {"class_name": "GlorotUniform", "config": {"seed": null}}, "bias_initializer": {"class_name": "Zeros", "config": {}}, "kernel_regularizer": {"class_name": "L2", "config": {"l2": 9.999999747378752e-05}}, "bias_regularizer": null, "activity_regularizer": null, "kernel_constraint": null, "bias_constraint": null}, "name": "conv2d_44", "inbound_nodes": [[["activation_43", 0, 0, {}]]]}, {"class_name": "BatchNormalization", "config": {"name": "batch_normalization_45", "trainable": true, "dtype": "float32", "axis": [3], "momentum": 0.9, "epsilon": 2e-05, "center": true, "scale": true, "beta_initializer": {"class_name": "Zeros", "config": {}}, "gamma_initializer": {"class_name": "Ones", "config": {}}, "moving_mean_initializer": {"class_name": "Zeros", "config": {}}, "moving_variance_initializer": {"class_name": "Ones", "config": {}}, "beta_regularizer": null, "gamma_regularizer": null, "beta_constraint": null, "gamma_constraint": null}, "name": "batch_normalization_45", "inbound_nodes": [[["conv2d_44", 0, 0, {}]]]}, {"class_name": "Activation", "config": {"name": "activation_44", "trainable": true, "dtype": "float32", "activation": "relu"}, "name": "activation_44", "inbound_nodes": [[["batch_normalization_45", 0, 0, {}]]]}, {"class_name": "Conv2D", "config": {"name": "conv2d_45", "trainable": true, "dtype": "float32", "filters": 32, "kernel_size": [3, 3], "strides": [1, 1], "padding": "same", "data_format": "channels_last", "dilation_rate": [1, 1], "groups": 1, "activation": "linear", "use_bias": false, "kernel_initializer": {"class_name": "GlorotUniform", "config": {"seed": null}}, "bias_initializer": {"class_name": "Zeros", "config": {}}, "kernel_regularizer": {"class_name": "L2", "config": {"l2": 9.999999747378752e-05}}, "bias_regularizer": null, "activity_regularizer": null, "kernel_constraint": null, "bias_constraint": null}, "name": "conv2d_45", "inbound_nodes": [[["activation_44", 0, 0, {}]]]}, {"class_name": "BatchNormalization", "config": {"name": "batch_normalization_46", "trainable": true, "dtype": "float32", "axis": [3], "momentum": 0.9, "epsilon": 2e-05, "center": true, "scale": true, "beta_initializer": {"class_name": "Zeros", "config": {}}, "gamma_initializer": {"class_name": "Ones", "config": {}}, "moving_mean_initializer": {"class_name": "Zeros", "config": {}}, "moving_variance_initializer": {"class_name": "Ones", "config": {}}, "beta_regularizer": null, "gamma_regularizer": null, "beta_constraint": null, "gamma_constraint": null}, "name": "batch_normalization_46", "inbound_nodes": [[["conv2d_45", 0, 0, {}]]]}, {"class_name": "Activation", "config": {"name": "activation_45", "trainable": true, "dtype": "float32", "activation": "relu"}, "name": "activation_45", "inbound_nodes": [[["batch_normalization_46", 0, 0, {}]]]}, {"class_name": "Conv2D", "config": {"name": "conv2d_46", "trainable": true, "dtype": "float32", "filters": 128, "kernel_size": [1, 1], "strides": [1, 1], "padding": "valid", "data_format": "channels_last", "dilation_rate": [1, 1], "groups": 1, "activation": "linear", "use_bias": false, "kernel_initializer": {"class_name": "GlorotUniform", "config": {"seed": null}}, "bias_initializer": {"class_name": "Zeros", "config": {}}, "kernel_regularizer": {"class_name": "L2", "config": {"l2": 9.999999747378752e-05}}, "bias_regularizer": null, "activity_regularizer": null, "kernel_constraint": null, "bias_constraint": null}, "name": "conv2d_46", "inbound_nodes": [[["activation_45", 0, 0, {}]]]}, {"class_name": "Conv2D", "config": {"name": "conv2d_47", "trainable": true, "dtype": "float32", "filters": 128, "kernel_size": [1, 1], "strides": [1, 1], "padding": "valid", "data_format": "channels_last", "dilation_rate": [1, 1], "groups": 1, "activation": "linear", "use_bias": false, "kernel_initializer": {"class_name": "GlorotUniform", "config": {"seed": null}}, "bias_initializer": {"class_name": "Zeros", "config": {}}, "kernel_regularizer": {"class_name": "L2", "config": {"l2": 9.999999747378752e-05}}, "bias_regularizer": null, "activity_regularizer": null, "kernel_constraint": null, "bias_constraint": null}, "name": "conv2d_47", "inbound_nodes": [[["activation_43", 0, 0, {}]]]}, {"class_name": "Add", "config": {"name": "add_13", "trainable": true, "dtype": "float32"}, "name": "add_13", "inbound_nodes": [[["conv2d_46", 0, 0, {}], ["conv2d_47", 0, 0, {}]]]}, {"class_name": "BatchNormalization", "config": {"name": "batch_normalization_47", "trainable": true, "dtype": "float32", "axis": [3], "momentum": 0.9, "epsilon": 2e-05, "center": true, "scale": true, "beta_initializer": {"class_name": "Zeros", "config": {}}, "gamma_initializer": {"class_name": "Ones", "config": {}}, "moving_mean_initializer": {"class_name": "Zeros", "config": {}}, "moving_variance_initializer": {"class_name": "Ones", "config": {}}, "beta_regularizer": null, "gamma_regularizer": null, "beta_constraint": null, "gamma_constraint": null}, "name": "batch_normalization_47", "inbound_nodes": [[["add_13", 0, 0, {}]]]}, {"class_name": "Activation", "config": {"name": "activation_46", "trainable": true, "dtype": "float32", "activation": "relu"}, "name": "activation_46", "inbound_nodes": [[["batch_normalization_47", 0, 0, {}]]]}, {"class_name": "Conv2D", "config": {"name": "conv2d_48", "trainable": true, "dtype": "float32", "filters": 32, "kernel_size": [1, 1], "strides": [1, 1], "padding": "valid", "data_format": "channels_last", "dilation_rate": [1, 1], "groups": 1, "activation": "linear", "use_bias": false, "kernel_initializer": {"class_name": "GlorotUniform", "config": {"seed": null}}, "bias_initializer": {"class_name": "Zeros", "config": {}}, "kernel_regularizer": {"class_name": "L2", "config": {"l2": 9.999999747378752e-05}}, "bias_regularizer": null, "activity_regularizer": null, "kernel_constraint": null, "bias_constraint": null}, "name": "conv2d_48", "inbound_nodes": [[["activation_46", 0, 0, {}]]]}, {"class_name": "BatchNormalization", "config": {"name": "batch_normalization_48", "trainable": true, "dtype": "float32", "axis": [3], "momentum": 0.9, "epsilon": 2e-05, "center": true, "scale": true, "beta_initializer": {"class_name": "Zeros", "config": {}}, "gamma_initializer": {"class_name": "Ones", "config": {}}, "moving_mean_initializer": {"class_name": "Zeros", "config": {}}, "moving_variance_initializer": {"class_name": "Ones", "config": {}}, "beta_regularizer": null, "gamma_regularizer": null, "beta_constraint": null, "gamma_constraint": null}, "name": "batch_normalization_48", "inbound_nodes": [[["conv2d_48", 0, 0, {}]]]}, {"class_name": "Activation", "config": {"name": "activation_47", "trainable": true, "dtype": "float32", "activation": "relu"}, "name": "activation_47", "inbound_nodes": [[["batch_normalization_48", 0, 0, {}]]]}, {"class_name": "Conv2D", "config": {"name": "conv2d_49", "trainable": true, "dtype": "float32", "filters": 32, "kernel_size": [3, 3], "strides": [1, 1], "padding": "same", "data_format": "channels_last", "dilation_rate": [1, 1], "groups": 1, "activation": "linear", "use_bias": false, "kernel_initializer": {"class_name": "GlorotUniform", "config": {"seed": null}}, "bias_initializer": {"class_name": "Zeros", "config": {}}, "kernel_regularizer": {"class_name": "L2", "config": {"l2": 9.999999747378752e-05}}, "bias_regularizer": null, "activity_regularizer": null, "kernel_constraint": null, "bias_constraint": null}, "name": "conv2d_49", "inbound_nodes": [[["activation_47", 0, 0, {}]]]}, {"class_name": "BatchNormalization", "config": {"name": "batch_normalization_49", "trainable": true, "dtype": "float32", "axis": [3], "momentum": 0.9, "epsilon": 2e-05, "center": true, "scale": true, "beta_initializer": {"class_name": "Zeros", "config": {}}, "gamma_initializer": {"class_name": "Ones", "config": {}}, "moving_mean_initializer": {"class_name": "Zeros", "config": {}}, "moving_variance_initializer": {"class_name": "Ones", "config": {}}, "beta_regularizer": null, "gamma_regularizer": null, "beta_constraint": null, "gamma_constraint": null}, "name": "batch_normalization_49", "inbound_nodes": [[["conv2d_49", 0, 0, {}]]]}, {"class_name": "Activation", "config": {"name": "activation_48", "trainable": true, "dtype": "float32", "activation": "relu"}, "name": "activation_48", "inbound_nodes": [[["batch_normalization_49", 0, 0, {}]]]}, {"class_name": "Conv2D", "config": {"name": "conv2d_50", "trainable": true, "dtype": "float32", "filters": 128, "kernel_size": [1, 1], "strides": [1, 1], "padding": "valid", "data_format": "channels_last", "dilation_rate": [1, 1], "groups": 1, "activation": "linear", "use_bias": false, "kernel_initializer": {"class_name": "GlorotUniform", "config": {"seed": null}}, "bias_initializer": {"class_name": "Zeros", "config": {}}, "kernel_regularizer": {"class_name": "L2", "config": {"l2": 9.999999747378752e-05}}, "bias_regularizer": null, "activity_regularizer": null, "kernel_constraint": null, "bias_constraint": null}, "name": "conv2d_50", "inbound_nodes": [[["activation_48", 0, 0, {}]]]}, {"class_name": "Add", "config": {"name": "add_14", "trainable": true, "dtype": "float32"}, "name": "add_14", "inbound_nodes": [[["conv2d_50", 0, 0, {}], ["add_13", 0, 0, {}]]]}, {"class_name": "BatchNormalization", "config": {"name": "batch_normalization_50", "trainable": true, "dtype": "float32", "axis": [3], "momentum": 0.9, "epsilon": 2e-05, "center": true, "scale": true, "beta_initializer": {"class_name": "Zeros", "config": {}}, "gamma_initializer": {"class_name": "Ones", "config": {}}, "moving_mean_initializer": {"class_name": "Zeros", "config": {}}, "moving_variance_initializer": {"class_name": "Ones", "config": {}}, "beta_regularizer": null, "gamma_regularizer": null, "beta_constraint": null, "gamma_constraint": null}, "name": "batch_normalization_50", "inbound_nodes": [[["add_14", 0, 0, {}]]]}, {"class_name": "Activation", "config": {"name": "activation_49", "trainable": true, "dtype": "float32", "activation": "relu"}, "name": "activation_49", "inbound_nodes": [[["batch_normalization_50", 0, 0, {}]]]}, {"class_name": "Conv2D", "config": {"name": "conv2d_51", "trainable": true, "dtype": "float32", "filters": 32, "kernel_size": [1, 1], "strides": [1, 1], "padding": "valid", "data_format": "channels_last", "dilation_rate": [1, 1], "groups": 1, "activation": "linear", "use_bias": false, "kernel_initializer": {"class_name": "GlorotUniform", "config": {"seed": null}}, "bias_initializer": {"class_name": "Zeros", "config": {}}, "kernel_regularizer": {"class_name": "L2", "config": {"l2": 9.999999747378752e-05}}, "bias_regularizer": null, "activity_regularizer": null, "kernel_constraint": null, "bias_constraint": null}, "name": "conv2d_51", "inbound_nodes": [[["activation_49", 0, 0, {}]]]}, {"class_name": "BatchNormalization", "config": {"name": "batch_normalization_51", "trainable": true, "dtype": "float32", "axis": [3], "momentum": 0.9, "epsilon": 2e-05, "center": true, "scale": true, "beta_initializer": {"class_name": "Zeros", "config": {}}, "gamma_initializer": {"class_name": "Ones", "config": {}}, "moving_mean_initializer": {"class_name": "Zeros", "config": {}}, "moving_variance_initializer": {"class_name": "Ones", "config": {}}, "beta_regularizer": null, "gamma_regularizer": null, "beta_constraint": null, "gamma_constraint": null}, "name": "batch_normalization_51", "inbound_nodes": [[["conv2d_51", 0, 0, {}]]]}, {"class_name": "Activation", "config": {"name": "activation_50", "trainable": true, "dtype": "float32", "activation": "relu"}, "name": "activation_50", "inbound_nodes": [[["batch_normalization_51", 0, 0, {}]]]}, {"class_name": "Conv2D", "config": {"name": "conv2d_52", "trainable": true, "dtype": "float32", "filters": 32, "kernel_size": [3, 3], "strides": [1, 1], "padding": "same", "data_format": "channels_last", "dilation_rate": [1, 1], "groups": 1, "activation": "linear", "use_bias": false, "kernel_initializer": {"class_name": "GlorotUniform", "config": {"seed": null}}, "bias_initializer": {"class_name": "Zeros", "config": {}}, "kernel_regularizer": {"class_name": "L2", "config": {"l2": 9.999999747378752e-05}}, "bias_regularizer": null, "activity_regularizer": null, "kernel_constraint": null, "bias_constraint": null}, "name": "conv2d_52", "inbound_nodes": [[["activation_50", 0, 0, {}]]]}, {"class_name": "BatchNormalization", "config": {"name": "batch_normalization_52", "trainable": true, "dtype": "float32", "axis": [3], "momentum": 0.9, "epsilon": 2e-05, "center": true, "scale": true, "beta_initializer": {"class_name": "Zeros", "config": {}}, "gamma_initializer": {"class_name": "Ones", "config": {}}, "moving_mean_initializer": {"class_name": "Zeros", "config": {}}, "moving_variance_initializer": {"class_name": "Ones", "config": {}}, "beta_regularizer": null, "gamma_regularizer": null, "beta_constraint": null, "gamma_constraint": null}, "name": "batch_normalization_52", "inbound_nodes": [[["conv2d_52", 0, 0, {}]]]}, {"class_name": "Activation", "config": {"name": "activation_51", "trainable": true, "dtype": "float32", "activation": "relu"}, "name": "activation_51", "inbound_nodes": [[["batch_normalization_52", 0, 0, {}]]]}, {"class_name": "Conv2D", "config": {"name": "conv2d_53", "trainable": true, "dtype": "float32", "filters": 128, "kernel_size": [1, 1], "strides": [1, 1], "padding": "valid", "data_format": "channels_last", "dilation_rate": [1, 1], "groups": 1, "activation": "linear", "use_bias": false, "kernel_initializer": {"class_name": "GlorotUniform", "config": {"seed": null}}, "bias_initializer": {"class_name": "Zeros", "config": {}}, "kernel_regularizer": {"class_name": "L2", "config": {"l2": 9.999999747378752e-05}}, "bias_regularizer": null, "activity_regularizer": null, "kernel_constraint": null, "bias_constraint": null}, "name": "conv2d_53", "inbound_nodes": [[["activation_51", 0, 0, {}]]]}, {"class_name": "Add", "config": {"name": "add_15", "trainable": true, "dtype": "float32"}, "name": "add_15", "inbound_nodes": [[["conv2d_53", 0, 0, {}], ["add_14", 0, 0, {}]]]}, {"class_name": "BatchNormalization", "config": {"name": "batch_normalization_53", "trainable": true, "dtype": "float32", "axis": [3], "momentum": 0.9, "epsilon": 2e-05, "center": true, "scale": true, "beta_initializer": {"class_name": "Zeros", "config": {}}, "gamma_initializer": {"class_name": "Ones", "config": {}}, "moving_mean_initializer": {"class_name": "Zeros", "config": {}}, "moving_variance_initializer": {"class_name": "Ones", "config": {}}, "beta_regularizer": null, "gamma_regularizer": null, "beta_constraint": null, "gamma_constraint": null}, "name": "batch_normalization_53", "inbound_nodes": [[["add_15", 0, 0, {}]]]}, {"class_name": "Activation", "config": {"name": "activation_52", "trainable": true, "dtype": "float32", "activation": "relu"}, "name": "activation_52", "inbound_nodes": [[["batch_normalization_53", 0, 0, {}]]]}, {"class_name": "Conv2D", "config": {"name": "conv2d_54", "trainable": true, "dtype": "float32", "filters": 64, "kernel_size": [1, 1], "strides": [1, 1], "padding": "valid", "data_format": "channels_last", "dilation_rate": [1, 1], "groups": 1, "activation": "linear", "use_bias": false, "kernel_initializer": {"class_name": "GlorotUniform", "config": {"seed": null}}, "bias_initializer": {"class_name": "Zeros", "config": {}}, "kernel_regularizer": {"class_name": "L2", "config": {"l2": 9.999999747378752e-05}}, "bias_regularizer": null, "activity_regularizer": null, "kernel_constraint": null, "bias_constraint": null}, "name": "conv2d_54", "inbound_nodes": [[["activation_52", 0, 0, {}]]]}, {"class_name": "BatchNormalization", "config": {"name": "batch_normalization_54", "trainable": true, "dtype": "float32", "axis": [3], "momentum": 0.9, "epsilon": 2e-05, "center": true, "scale": true, "beta_initializer": {"class_name": "Zeros", "config": {}}, "gamma_initializer": {"class_name": "Ones", "config": {}}, "moving_mean_initializer": {"class_name": "Zeros", "config": {}}, "moving_variance_initializer": {"class_name": "Ones", "config": {}}, "beta_regularizer": null, "gamma_regularizer": null, "beta_constraint": null, "gamma_constraint": null}, "name": "batch_normalization_54", "inbound_nodes": [[["conv2d_54", 0, 0, {}]]]}, {"class_name": "Activation", "config": {"name": "activation_53", "trainable": true, "dtype": "float32", "activation": "relu"}, "name": "activation_53", "inbound_nodes": [[["batch_normalization_54", 0, 0, {}]]]}, {"class_name": "Conv2D", "config": {"name": "conv2d_55", "trainable": true, "dtype": "float32", "filters": 64, "kernel_size": [3, 3], "strides": [2, 2], "padding": "same", "data_format": "channels_last", "dilation_rate": [1, 1], "groups": 1, "activation": "linear", "use_bias": false, "kernel_initializer": {"class_name": "GlorotUniform", "config": {"seed": null}}, "bias_initializer": {"class_name": "Zeros", "config": {}}, "kernel_regularizer": {"class_name": "L2", "config": {"l2": 9.999999747378752e-05}}, "bias_regularizer": null, "activity_regularizer": null, "kernel_constraint": null, "bias_constraint": null}, "name": "conv2d_55", "inbound_nodes": [[["activation_53", 0, 0, {}]]]}, {"class_name": "BatchNormalization", "config": {"name": "batch_normalization_55", "trainable": true, "dtype": "float32", "axis": [3], "momentum": 0.9, "epsilon": 2e-05, "center": true, "scale": true, "beta_initializer": {"class_name": "Zeros", "config": {}}, "gamma_initializer": {"class_name": "Ones", "config": {}}, "moving_mean_initializer": {"class_name": "Zeros", "config": {}}, "moving_variance_initializer": {"class_name": "Ones", "config": {}}, "beta_regularizer": null, "gamma_regularizer": null, "beta_constraint": null, "gamma_constraint": null}, "name": "batch_normalization_55", "inbound_nodes": [[["conv2d_55", 0, 0, {}]]]}, {"class_name": "Activation", "config": {"name": "activation_54", "trainable": true, "dtype": "float32", "activation": "relu"}, "name": "activation_54", "inbound_nodes": [[["batch_normalization_55", 0, 0, {}]]]}, {"class_name": "Conv2D", "config": {"name": "conv2d_56", "trainable": true, "dtype": "float32", "filters": 256, "kernel_size": [1, 1], "strides": [1, 1], "padding": "valid", "data_format": "channels_last", "dilation_rate": [1, 1], "groups": 1, "activation": "linear", "use_bias": false, "kernel_initializer": {"class_name": "GlorotUniform", "config": {"seed": null}}, "bias_initializer": {"class_name": "Zeros", "config": {}}, "kernel_regularizer": {"class_name": "L2", "config": {"l2": 9.999999747378752e-05}}, "bias_regularizer": null, "activity_regularizer": null, "kernel_constraint": null, "bias_constraint": null}, "name": "conv2d_56", "inbound_nodes": [[["activation_54", 0, 0, {}]]]}, {"class_name": "Conv2D", "config": {"name": "conv2d_57", "trainable": true, "dtype": "float32", "filters": 256, "kernel_size": [1, 1], "strides": [2, 2], "padding": "valid", "data_format": "channels_last", "dilation_rate": [1, 1], "groups": 1, "activation": "linear", "use_bias": false, "kernel_initializer": {"class_name": "GlorotUniform", "config": {"seed": null}}, "bias_initializer": {"class_name": "Zeros", "config": {}}, "kernel_regularizer": {"class_name": "L2", "config": {"l2": 9.999999747378752e-05}}, "bias_regularizer": null, "activity_regularizer": null, "kernel_constraint": null, "bias_constraint": null}, "name": "conv2d_57", "inbound_nodes": [[["activation_52", 0, 0, {}]]]}, {"class_name": "Add", "config": {"name": "add_16", "trainable": true, "dtype": "float32"}, "name": "add_16", "inbound_nodes": [[["conv2d_56", 0, 0, {}], ["conv2d_57", 0, 0, {}]]]}, {"class_name": "BatchNormalization", "config": {"name": "batch_normalization_56", "trainable": true, "dtype": "float32", "axis": [3], "momentum": 0.9, "epsilon": 2e-05, "center": true, "scale": true, "beta_initializer": {"class_name": "Zeros", "config": {}}, "gamma_initializer": {"class_name": "Ones", "config": {}}, "moving_mean_initializer": {"class_name": "Zeros", "config": {}}, "moving_variance_initializer": {"class_name": "Ones", "config": {}}, "beta_regularizer": null, "gamma_regularizer": null, "beta_constraint": null, "gamma_constraint": null}, "name": "batch_normalization_56", "inbound_nodes": [[["add_16", 0, 0, {}]]]}, {"class_name": "Activation", "config": {"name": "activation_55", "trainable": true, "dtype": "float32", "activation": "relu"}, "name": "activation_55", "inbound_nodes": [[["batch_normalization_56", 0, 0, {}]]]}, {"class_name": "Conv2D", "config": {"name": "conv2d_58", "trainable": true, "dtype": "float32", "filters": 64, "kernel_size": [1, 1], "strides": [1, 1], "padding": "valid", "data_format": "channels_last", "dilation_rate": [1, 1], "groups": 1, "activation": "linear", "use_bias": false, "kernel_initializer": {"class_name": "GlorotUniform", "config": {"seed": null}}, "bias_initializer": {"class_name": "Zeros", "config": {}}, "kernel_regularizer": {"class_name": "L2", "config": {"l2": 9.999999747378752e-05}}, "bias_regularizer": null, "activity_regularizer": null, "kernel_constraint": null, "bias_constraint": null}, "name": "conv2d_58", "inbound_nodes": [[["activation_55", 0, 0, {}]]]}, {"class_name": "BatchNormalization", "config": {"name": "batch_normalization_57", "trainable": true, "dtype": "float32", "axis": [3], "momentum": 0.9, "epsilon": 2e-05, "center": true, "scale": true, "beta_initializer": {"class_name": "Zeros", "config": {}}, "gamma_initializer": {"class_name": "Ones", "config": {}}, "moving_mean_initializer": {"class_name": "Zeros", "config": {}}, "moving_variance_initializer": {"class_name": "Ones", "config": {}}, "beta_regularizer": null, "gamma_regularizer": null, "beta_constraint": null, "gamma_constraint": null}, "name": "batch_normalization_57", "inbound_nodes": [[["conv2d_58", 0, 0, {}]]]}, {"class_name": "Activation", "config": {"name": "activation_56", "trainable": true, "dtype": "float32", "activation": "relu"}, "name": "activation_56", "inbound_nodes": [[["batch_normalization_57", 0, 0, {}]]]}, {"class_name": "Conv2D", "config": {"name": "conv2d_59", "trainable": true, "dtype": "float32", "filters": 64, "kernel_size": [3, 3], "strides": [1, 1], "padding": "same", "data_format": "channels_last", "dilation_rate": [1, 1], "groups": 1, "activation": "linear", "use_bias": false, "kernel_initializer": {"class_name": "GlorotUniform", "config": {"seed": null}}, "bias_initializer": {"class_name": "Zeros", "config": {}}, "kernel_regularizer": {"class_name": "L2", "config": {"l2": 9.999999747378752e-05}}, "bias_regularizer": null, "activity_regularizer": null, "kernel_constraint": null, "bias_constraint": null}, "name": "conv2d_59", "inbound_nodes": [[["activation_56", 0, 0, {}]]]}, {"class_name": "BatchNormalization", "config": {"name": "batch_normalization_58", "trainable": true, "dtype": "float32", "axis": [3], "momentum": 0.9, "epsilon": 2e-05, "center": true, "scale": true, "beta_initializer": {"class_name": "Zeros", "config": {}}, "gamma_initializer": {"class_name": "Ones", "config": {}}, "moving_mean_initializer": {"class_name": "Zeros", "config": {}}, "moving_variance_initializer": {"class_name": "Ones", "config": {}}, "beta_regularizer": null, "gamma_regularizer": null, "beta_constraint": null, "gamma_constraint": null}, "name": "batch_normalization_58", "inbound_nodes": [[["conv2d_59", 0, 0, {}]]]}, {"class_name": "Activation", "config": {"name": "activation_57", "trainable": true, "dtype": "float32", "activation": "relu"}, "name": "activation_57", "inbound_nodes": [[["batch_normalization_58", 0, 0, {}]]]}, {"class_name": "Conv2D", "config": {"name": "conv2d_60", "trainable": true, "dtype": "float32", "filters": 256, "kernel_size": [1, 1], "strides": [1, 1], "padding": "valid", "data_format": "channels_last", "dilation_rate": [1, 1], "groups": 1, "activation": "linear", "use_bias": false, "kernel_initializer": {"class_name": "GlorotUniform", "config": {"seed": null}}, "bias_initializer": {"class_name": "Zeros", "config": {}}, "kernel_regularizer": {"class_name": "L2", "config": {"l2": 9.999999747378752e-05}}, "bias_regularizer": null, "activity_regularizer": null, "kernel_constraint": null, "bias_constraint": null}, "name": "conv2d_60", "inbound_nodes": [[["activation_57", 0, 0, {}]]]}, {"class_name": "Add", "config": {"name": "add_17", "trainable": true, "dtype": "float32"}, "name": "add_17", "inbound_nodes": [[["conv2d_60", 0, 0, {}], ["add_16", 0, 0, {}]]]}, {"class_name": "BatchNormalization", "config": {"name": "batch_normalization_59", "trainable": true, "dtype": "float32", "axis": [3], "momentum": 0.9, "epsilon": 2e-05, "center": true, "scale": true, "beta_initializer": {"class_name": "Zeros", "config": {}}, "gamma_initializer": {"class_name": "Ones", "config": {}}, "moving_mean_initializer": {"class_name": "Zeros", "config": {}}, "moving_variance_initializer": {"class_name": "Ones", "config": {}}, "beta_regularizer": null, "gamma_regularizer": null, "beta_constraint": null, "gamma_constraint": null}, "name": "batch_normalization_59", "inbound_nodes": [[["add_17", 0, 0, {}]]]}, {"class_name": "Activation", "config": {"name": "activation_58", "trainable": true, "dtype": "float32", "activation": "relu"}, "name": "activation_58", "inbound_nodes": [[["batch_normalization_59", 0, 0, {}]]]}, {"class_name": "Conv2D", "config": {"name": "conv2d_61", "trainable": true, "dtype": "float32", "filters": 64, "kernel_size": [1, 1], "strides": [1, 1], "padding": "valid", "data_format": "channels_last", "dilation_rate": [1, 1], "groups": 1, "activation": "linear", "use_bias": false, "kernel_initializer": {"class_name": "GlorotUniform", "config": {"seed": null}}, "bias_initializer": {"class_name": "Zeros", "config": {}}, "kernel_regularizer": {"class_name": "L2", "config": {"l2": 9.999999747378752e-05}}, "bias_regularizer": null, "activity_regularizer": null, "kernel_constraint": null, "bias_constraint": null}, "name": "conv2d_61", "inbound_nodes": [[["activation_58", 0, 0, {}]]]}, {"class_name": "BatchNormalization", "config": {"name": "batch_normalization_60", "trainable": true, "dtype": "float32", "axis": [3], "momentum": 0.9, "epsilon": 2e-05, "center": true, "scale": true, "beta_initializer": {"class_name": "Zeros", "config": {}}, "gamma_initializer": {"class_name": "Ones", "config": {}}, "moving_mean_initializer": {"class_name": "Zeros", "config": {}}, "moving_variance_initializer": {"class_name": "Ones", "config": {}}, "beta_regularizer": null, "gamma_regularizer": null, "beta_constraint": null, "gamma_constraint": null}, "name": "batch_normalization_60", "inbound_nodes": [[["conv2d_61", 0, 0, {}]]]}, {"class_name": "Activation", "config": {"name": "activation_59", "trainable": true, "dtype": "float32", "activation": "relu"}, "name": "activation_59", "inbound_nodes": [[["batch_normalization_60", 0, 0, {}]]]}, {"class_name": "Conv2D", "config": {"name": "conv2d_62", "trainable": true, "dtype": "float32", "filters": 64, "kernel_size": [3, 3], "strides": [1, 1], "padding": "same", "data_format": "channels_last", "dilation_rate": [1, 1], "groups": 1, "activation": "linear", "use_bias": false, "kernel_initializer": {"class_name": "GlorotUniform", "config": {"seed": null}}, "bias_initializer": {"class_name": "Zeros", "config": {}}, "kernel_regularizer": {"class_name": "L2", "config": {"l2": 9.999999747378752e-05}}, "bias_regularizer": null, "activity_regularizer": null, "kernel_constraint": null, "bias_constraint": null}, "name": "conv2d_62", "inbound_nodes": [[["activation_59", 0, 0, {}]]]}, {"class_name": "BatchNormalization", "config": {"name": "batch_normalization_61", "trainable": true, "dtype": "float32", "axis": [3], "momentum": 0.9, "epsilon": 2e-05, "center": true, "scale": true, "beta_initializer": {"class_name": "Zeros", "config": {}}, "gamma_initializer": {"class_name": "Ones", "config": {}}, "moving_mean_initializer": {"class_name": "Zeros", "config": {}}, "moving_variance_initializer": {"class_name": "Ones", "config": {}}, "beta_regularizer": null, "gamma_regularizer": null, "beta_constraint": null, "gamma_constraint": null}, "name": "batch_normalization_61", "inbound_nodes": [[["conv2d_62", 0, 0, {}]]]}, {"class_name": "Activation", "config": {"name": "activation_60", "trainable": true, "dtype": "float32", "activation": "relu"}, "name": "activation_60", "inbound_nodes": [[["batch_normalization_61", 0, 0, {}]]]}, {"class_name": "Conv2D", "config": {"name": "conv2d_63", "trainable": true, "dtype": "float32", "filters": 256, "kernel_size": [1, 1], "strides": [1, 1], "padding": "valid", "data_format": "channels_last", "dilation_rate": [1, 1], "groups": 1, "activation": "linear", "use_bias": false, "kernel_initializer": {"class_name": "GlorotUniform", "config": {"seed": null}}, "bias_initializer": {"class_name": "Zeros", "config": {}}, "kernel_regularizer": {"class_name": "L2", "config": {"l2": 9.999999747378752e-05}}, "bias_regularizer": null, "activity_regularizer": null, "kernel_constraint": null, "bias_constraint": null}, "name": "conv2d_63", "inbound_nodes": [[["activation_60", 0, 0, {}]]]}, {"class_name": "Add", "config": {"name": "add_18", "trainable": true, "dtype": "float32"}, "name": "add_18", "inbound_nodes": [[["conv2d_63", 0, 0, {}], ["add_17", 0, 0, {}]]]}, {"class_name": "BatchNormalization", "config": {"name": "batch_normalization_62", "trainable": true, "dtype": "float32", "axis": [3], "momentum": 0.9, "epsilon": 2e-05, "center": true, "scale": true, "beta_initializer": {"class_name": "Zeros", "config": {}}, "gamma_initializer": {"class_name": "Ones", "config": {}}, "moving_mean_initializer": {"class_name": "Zeros", "config": {}}, "moving_variance_initializer": {"class_name": "Ones", "config": {}}, "beta_regularizer": null, "gamma_regularizer": null, "beta_constraint": null, "gamma_constraint": null}, "name": "batch_normalization_62", "inbound_nodes": [[["add_18", 0, 0, {}]]]}, {"class_name": "Activation", "config": {"name": "activation_61", "trainable": true, "dtype": "float32", "activation": "relu"}, "name": "activation_61", "inbound_nodes": [[["batch_normalization_62", 0, 0, {}]]]}, {"class_name": "Conv2D", "config": {"name": "conv2d_64", "trainable": true, "dtype": "float32", "filters": 64, "kernel_size": [1, 1], "strides": [1, 1], "padding": "valid", "data_format": "channels_last", "dilation_rate": [1, 1], "groups": 1, "activation": "linear", "use_bias": false, "kernel_initializer": {"class_name": "GlorotUniform", "config": {"seed": null}}, "bias_initializer": {"class_name": "Zeros", "config": {}}, "kernel_regularizer": {"class_name": "L2", "config": {"l2": 9.999999747378752e-05}}, "bias_regularizer": null, "activity_regularizer": null, "kernel_constraint": null, "bias_constraint": null}, "name": "conv2d_64", "inbound_nodes": [[["activation_61", 0, 0, {}]]]}, {"class_name": "BatchNormalization", "config": {"name": "batch_normalization_63", "trainable": true, "dtype": "float32", "axis": [3], "momentum": 0.9, "epsilon": 2e-05, "center": true, "scale": true, "beta_initializer": {"class_name": "Zeros", "config": {}}, "gamma_initializer": {"class_name": "Ones", "config": {}}, "moving_mean_initializer": {"class_name": "Zeros", "config": {}}, "moving_variance_initializer": {"class_name": "Ones", "config": {}}, "beta_regularizer": null, "gamma_regularizer": null, "beta_constraint": null, "gamma_constraint": null}, "name": "batch_normalization_63", "inbound_nodes": [[["conv2d_64", 0, 0, {}]]]}, {"class_name": "Activation", "config": {"name": "activation_62", "trainable": true, "dtype": "float32", "activation": "relu"}, "name": "activation_62", "inbound_nodes": [[["batch_normalization_63", 0, 0, {}]]]}, {"class_name": "Conv2D", "config": {"name": "conv2d_65", "trainable": true, "dtype": "float32", "filters": 64, "kernel_size": [3, 3], "strides": [1, 1], "padding": "same", "data_format": "channels_last", "dilation_rate": [1, 1], "groups": 1, "activation": "linear", "use_bias": false, "kernel_initializer": {"class_name": "GlorotUniform", "config": {"seed": null}}, "bias_initializer": {"class_name": "Zeros", "config": {}}, "kernel_regularizer": {"class_name": "L2", "config": {"l2": 9.999999747378752e-05}}, "bias_regularizer": null, "activity_regularizer": null, "kernel_constraint": null, "bias_constraint": null}, "name": "conv2d_65", "inbound_nodes": [[["activation_62", 0, 0, {}]]]}, {"class_name": "BatchNormalization", "config": {"name": "batch_normalization_64", "trainable": true, "dtype": "float32", "axis": [3], "momentum": 0.9, "epsilon": 2e-05, "center": true, "scale": true, "beta_initializer": {"class_name": "Zeros", "config": {}}, "gamma_initializer": {"class_name": "Ones", "config": {}}, "moving_mean_initializer": {"class_name": "Zeros", "config": {}}, "moving_variance_initializer": {"class_name": "Ones", "config": {}}, "beta_regularizer": null, "gamma_regularizer": null, "beta_constraint": null, "gamma_constraint": null}, "name": "batch_normalization_64", "inbound_nodes": [[["conv2d_65", 0, 0, {}]]]}, {"class_name": "Activation", "config": {"name": "activation_63", "trainable": true, "dtype": "float32", "activation": "relu"}, "name": "activation_63", "inbound_nodes": [[["batch_normalization_64", 0, 0, {}]]]}, {"class_name": "Conv2D", "config": {"name": "conv2d_66", "trainable": true, "dtype": "float32", "filters": 256, "kernel_size": [1, 1], "strides": [1, 1], "padding": "valid", "data_format": "channels_last", "dilation_rate": [1, 1], "groups": 1, "activation": "linear", "use_bias": false, "kernel_initializer": {"class_name": "GlorotUniform", "config": {"seed": null}}, "bias_initializer": {"class_name": "Zeros", "config": {}}, "kernel_regularizer": {"class_name": "L2", "config": {"l2": 9.999999747378752e-05}}, "bias_regularizer": null, "activity_regularizer": null, "kernel_constraint": null, "bias_constraint": null}, "name": "conv2d_66", "inbound_nodes": [[["activation_63", 0, 0, {}]]]}, {"class_name": "Add", "config": {"name": "add_19", "trainable": true, "dtype": "float32"}, "name": "add_19", "inbound_nodes": [[["conv2d_66", 0, 0, {}], ["add_18", 0, 0, {}]]]}, {"class_name": "BatchNormalization", "config": {"name": "batch_normalization_65", "trainable": true, "dtype": "float32", "axis": [3], "momentum": 0.9, "epsilon": 2e-05, "center": true, "scale": true, "beta_initializer": {"class_name": "Zeros", "config": {}}, "gamma_initializer": {"class_name": "Ones", "config": {}}, "moving_mean_initializer": {"class_name": "Zeros", "config": {}}, "moving_variance_initializer": {"class_name": "Ones", "config": {}}, "beta_regularizer": null, "gamma_regularizer": null, "beta_constraint": null, "gamma_constraint": null}, "name": "batch_normalization_65", "inbound_nodes": [[["add_19", 0, 0, {}]]]}, {"class_name": "Activation", "config": {"name": "activation_64", "trainable": true, "dtype": "float32", "activation": "relu"}, "name": "activation_64", "inbound_nodes": [[["batch_normalization_65", 0, 0, {}]]]}, {"class_name": "Conv2D", "config": {"name": "conv2d_67", "trainable": true, "dtype": "float32", "filters": 128, "kernel_size": [1, 1], "strides": [1, 1], "padding": "valid", "data_format": "channels_last", "dilation_rate": [1, 1], "groups": 1, "activation": "linear", "use_bias": false, "kernel_initializer": {"class_name": "GlorotUniform", "config": {"seed": null}}, "bias_initializer": {"class_name": "Zeros", "config": {}}, "kernel_regularizer": {"class_name": "L2", "config": {"l2": 9.999999747378752e-05}}, "bias_regularizer": null, "activity_regularizer": null, "kernel_constraint": null, "bias_constraint": null}, "name": "conv2d_67", "inbound_nodes": [[["activation_64", 0, 0, {}]]]}, {"class_name": "BatchNormalization", "config": {"name": "batch_normalization_66", "trainable": true, "dtype": "float32", "axis": [3], "momentum": 0.9, "epsilon": 2e-05, "center": true, "scale": true, "beta_initializer": {"class_name": "Zeros", "config": {}}, "gamma_initializer": {"class_name": "Ones", "config": {}}, "moving_mean_initializer": {"class_name": "Zeros", "config": {}}, "moving_variance_initializer": {"class_name": "Ones", "config": {}}, "beta_regularizer": null, "gamma_regularizer": null, "beta_constraint": null, "gamma_constraint": null}, "name": "batch_normalization_66", "inbound_nodes": [[["conv2d_67", 0, 0, {}]]]}, {"class_name": "Activation", "config": {"name": "activation_65", "trainable": true, "dtype": "float32", "activation": "relu"}, "name": "activation_65", "inbound_nodes": [[["batch_normalization_66", 0, 0, {}]]]}, {"class_name": "Conv2D", "config": {"name": "conv2d_68", "trainable": true, "dtype": "float32", "filters": 128, "kernel_size": [3, 3], "strides": [2, 2], "padding": "same", "data_format": "channels_last", "dilation_rate": [1, 1], "groups": 1, "activation": "linear", "use_bias": false, "kernel_initializer": {"class_name": "GlorotUniform", "config": {"seed": null}}, "bias_initializer": {"class_name": "Zeros", "config": {}}, "kernel_regularizer": {"class_name": "L2", "config": {"l2": 9.999999747378752e-05}}, "bias_regularizer": null, "activity_regularizer": null, "kernel_constraint": null, "bias_constraint": null}, "name": "conv2d_68", "inbound_nodes": [[["activation_65", 0, 0, {}]]]}, {"class_name": "BatchNormalization", "config": {"name": "batch_normalization_67", "trainable": true, "dtype": "float32", "axis": [3], "momentum": 0.9, "epsilon": 2e-05, "center": true, "scale": true, "beta_initializer": {"class_name": "Zeros", "config": {}}, "gamma_initializer": {"class_name": "Ones", "config": {}}, "moving_mean_initializer": {"class_name": "Zeros", "config": {}}, "moving_variance_initializer": {"class_name": "Ones", "config": {}}, "beta_regularizer": null, "gamma_regularizer": null, "beta_constraint": null, "gamma_constraint": null}, "name": "batch_normalization_67", "inbound_nodes": [[["conv2d_68", 0, 0, {}]]]}, {"class_name": "Activation", "config": {"name": "activation_66", "trainable": true, "dtype": "float32", "activation": "relu"}, "name": "activation_66", "inbound_nodes": [[["batch_normalization_67", 0, 0, {}]]]}, {"class_name": "Conv2D", "config": {"name": "conv2d_69", "trainable": true, "dtype": "float32", "filters": 512, "kernel_size": [1, 1], "strides": [1, 1], "padding": "valid", "data_format": "channels_last", "dilation_rate": [1, 1], "groups": 1, "activation": "linear", "use_bias": false, "kernel_initializer": {"class_name": "GlorotUniform", "config": {"seed": null}}, "bias_initializer": {"class_name": "Zeros", "config": {}}, "kernel_regularizer": {"class_name": "L2", "config": {"l2": 9.999999747378752e-05}}, "bias_regularizer": null, "activity_regularizer": null, "kernel_constraint": null, "bias_constraint": null}, "name": "conv2d_69", "inbound_nodes": [[["activation_66", 0, 0, {}]]]}, {"class_name": "Conv2D", "config": {"name": "conv2d_70", "trainable": true, "dtype": "float32", "filters": 512, "kernel_size": [1, 1], "strides": [2, 2], "padding": "valid", "data_format": "channels_last", "dilation_rate": [1, 1], "groups": 1, "activation": "linear", "use_bias": false, "kernel_initializer": {"class_name": "GlorotUniform", "config": {"seed": null}}, "bias_initializer": {"class_name": "Zeros", "config": {}}, "kernel_regularizer": {"class_name": "L2", "config": {"l2": 9.999999747378752e-05}}, "bias_regularizer": null, "activity_regularizer": null, "kernel_constraint": null, "bias_constraint": null}, "name": "conv2d_70", "inbound_nodes": [[["activation_64", 0, 0, {}]]]}, {"class_name": "Add", "config": {"name": "add_20", "trainable": true, "dtype": "float32"}, "name": "add_20", "inbound_nodes": [[["conv2d_69", 0, 0, {}], ["conv2d_70", 0, 0, {}]]]}, {"class_name": "BatchNormalization", "config": {"name": "batch_normalization_68", "trainable": true, "dtype": "float32", "axis": [3], "momentum": 0.9, "epsilon": 2e-05, "center": true, "scale": true, "beta_initializer": {"class_name": "Zeros", "config": {}}, "gamma_initializer": {"class_name": "Ones", "config": {}}, "moving_mean_initializer": {"class_name": "Zeros", "config": {}}, "moving_variance_initializer": {"class_name": "Ones", "config": {}}, "beta_regularizer": null, "gamma_regularizer": null, "beta_constraint": null, "gamma_constraint": null}, "name": "batch_normalization_68", "inbound_nodes": [[["add_20", 0, 0, {}]]]}, {"class_name": "Activation", "config": {"name": "activation_67", "trainable": true, "dtype": "float32", "activation": "relu"}, "name": "activation_67", "inbound_nodes": [[["batch_normalization_68", 0, 0, {}]]]}, {"class_name": "Conv2D", "config": {"name": "conv2d_71", "trainable": true, "dtype": "float32", "filters": 128, "kernel_size": [1, 1], "strides": [1, 1], "padding": "valid", "data_format": "channels_last", "dilation_rate": [1, 1], "groups": 1, "activation": "linear", "use_bias": false, "kernel_initializer": {"class_name": "GlorotUniform", "config": {"seed": null}}, "bias_initializer": {"class_name": "Zeros", "config": {}}, "kernel_regularizer": {"class_name": "L2", "config": {"l2": 9.999999747378752e-05}}, "bias_regularizer": null, "activity_regularizer": null, "kernel_constraint": null, "bias_constraint": null}, "name": "conv2d_71", "inbound_nodes": [[["activation_67", 0, 0, {}]]]}, {"class_name": "BatchNormalization", "config": {"name": "batch_normalization_69", "trainable": true, "dtype": "float32", "axis": [3], "momentum": 0.9, "epsilon": 2e-05, "center": true, "scale": true, "beta_initializer": {"class_name": "Zeros", "config": {}}, "gamma_initializer": {"class_name": "Ones", "config": {}}, "moving_mean_initializer": {"class_name": "Zeros", "config": {}}, "moving_variance_initializer": {"class_name": "Ones", "config": {}}, "beta_regularizer": null, "gamma_regularizer": null, "beta_constraint": null, "gamma_constraint": null}, "name": "batch_normalization_69", "inbound_nodes": [[["conv2d_71", 0, 0, {}]]]}, {"class_name": "Activation", "config": {"name": "activation_68", "trainable": true, "dtype": "float32", "activation": "relu"}, "name": "activation_68", "inbound_nodes": [[["batch_normalization_69", 0, 0, {}]]]}, {"class_name": "Conv2D", "config": {"name": "conv2d_72", "trainable": true, "dtype": "float32", "filters": 128, "kernel_size": [3, 3], "strides": [1, 1], "padding": "same", "data_format": "channels_last", "dilation_rate": [1, 1], "groups": 1, "activation": "linear", "use_bias": false, "kernel_initializer": {"class_name": "GlorotUniform", "config": {"seed": null}}, "bias_initializer": {"class_name": "Zeros", "config": {}}, "kernel_regularizer": {"class_name": "L2", "config": {"l2": 9.999999747378752e-05}}, "bias_regularizer": null, "activity_regularizer": null, "kernel_constraint": null, "bias_constraint": null}, "name": "conv2d_72", "inbound_nodes": [[["activation_68", 0, 0, {}]]]}, {"class_name": "BatchNormalization", "config": {"name": "batch_normalization_70", "trainable": true, "dtype": "float32", "axis": [3], "momentum": 0.9, "epsilon": 2e-05, "center": true, "scale": true, "beta_initializer": {"class_name": "Zeros", "config": {}}, "gamma_initializer": {"class_name": "Ones", "config": {}}, "moving_mean_initializer": {"class_name": "Zeros", "config": {}}, "moving_variance_initializer": {"class_name": "Ones", "config": {}}, "beta_regularizer": null, "gamma_regularizer": null, "beta_constraint": null, "gamma_constraint": null}, "name": "batch_normalization_70", "inbound_nodes": [[["conv2d_72", 0, 0, {}]]]}, {"class_name": "Activation", "config": {"name": "activation_69", "trainable": true, "dtype": "float32", "activation": "relu"}, "name": "activation_69", "inbound_nodes": [[["batch_normalization_70", 0, 0, {}]]]}, {"class_name": "Conv2D", "config": {"name": "conv2d_73", "trainable": true, "dtype": "float32", "filters": 512, "kernel_size": [1, 1], "strides": [1, 1], "padding": "valid", "data_format": "channels_last", "dilation_rate": [1, 1], "groups": 1, "activation": "linear", "use_bias": false, "kernel_initializer": {"class_name": "GlorotUniform", "config": {"seed": null}}, "bias_initializer": {"class_name": "Zeros", "config": {}}, "kernel_regularizer": {"class_name": "L2", "config": {"l2": 9.999999747378752e-05}}, "bias_regularizer": null, "activity_regularizer": null, "kernel_constraint": null, "bias_constraint": null}, "name": "conv2d_73", "inbound_nodes": [[["activation_69", 0, 0, {}]]]}, {"class_name": "Add", "config": {"name": "add_21", "trainable": true, "dtype": "float32"}, "name": "add_21", "inbound_nodes": [[["conv2d_73", 0, 0, {}], ["add_20", 0, 0, {}]]]}, {"class_name": "BatchNormalization", "config": {"name": "batch_normalization_71", "trainable": true, "dtype": "float32", "axis": [3], "momentum": 0.9, "epsilon": 2e-05, "center": true, "scale": true, "beta_initializer": {"class_name": "Zeros", "config": {}}, "gamma_initializer": {"class_name": "Ones", "config": {}}, "moving_mean_initializer": {"class_name": "Zeros", "config": {}}, "moving_variance_initializer": {"class_name": "Ones", "config": {}}, "beta_regularizer": null, "gamma_regularizer": null, "beta_constraint": null, "gamma_constraint": null}, "name": "batch_normalization_71", "inbound_nodes": [[["add_21", 0, 0, {}]]]}, {"class_name": "Activation", "config": {"name": "activation_70", "trainable": true, "dtype": "float32", "activation": "relu"}, "name": "activation_70", "inbound_nodes": [[["batch_normalization_71", 0, 0, {}]]]}, {"class_name": "Conv2D", "config": {"name": "conv2d_74", "trainable": true, "dtype": "float32", "filters": 128, "kernel_size": [1, 1], "strides": [1, 1], "padding": "valid", "data_format": "channels_last", "dilation_rate": [1, 1], "groups": 1, "activation": "linear", "use_bias": false, "kernel_initializer": {"class_name": "GlorotUniform", "config": {"seed": null}}, "bias_initializer": {"class_name": "Zeros", "config": {}}, "kernel_regularizer": {"class_name": "L2", "config": {"l2": 9.999999747378752e-05}}, "bias_regularizer": null, "activity_regularizer": null, "kernel_constraint": null, "bias_constraint": null}, "name": "conv2d_74", "inbound_nodes": [[["activation_70", 0, 0, {}]]]}, {"class_name": "BatchNormalization", "config": {"name": "batch_normalization_72", "trainable": true, "dtype": "float32", "axis": [3], "momentum": 0.9, "epsilon": 2e-05, "center": true, "scale": true, "beta_initializer": {"class_name": "Zeros", "config": {}}, "gamma_initializer": {"class_name": "Ones", "config": {}}, "moving_mean_initializer": {"class_name": "Zeros", "config": {}}, "moving_variance_initializer": {"class_name": "Ones", "config": {}}, "beta_regularizer": null, "gamma_regularizer": null, "beta_constraint": null, "gamma_constraint": null}, "name": "batch_normalization_72", "inbound_nodes": [[["conv2d_74", 0, 0, {}]]]}, {"class_name": "Activation", "config": {"name": "activation_71", "trainable": true, "dtype": "float32", "activation": "relu"}, "name": "activation_71", "inbound_nodes": [[["batch_normalization_72", 0, 0, {}]]]}, {"class_name": "Conv2D", "config": {"name": "conv2d_75", "trainable": true, "dtype": "float32", "filters": 128, "kernel_size": [3, 3], "strides": [1, 1], "padding": "same", "data_format": "channels_last", "dilation_rate": [1, 1], "groups": 1, "activation": "linear", "use_bias": false, "kernel_initializer": {"class_name": "GlorotUniform", "config": {"seed": null}}, "bias_initializer": {"class_name": "Zeros", "config": {}}, "kernel_regularizer": {"class_name": "L2", "config": {"l2": 9.999999747378752e-05}}, "bias_regularizer": null, "activity_regularizer": null, "kernel_constraint": null, "bias_constraint": null}, "name": "conv2d_75", "inbound_nodes": [[["activation_71", 0, 0, {}]]]}, {"class_name": "BatchNormalization", "config": {"name": "batch_normalization_73", "trainable": true, "dtype": "float32", "axis": [3], "momentum": 0.9, "epsilon": 2e-05, "center": true, "scale": true, "beta_initializer": {"class_name": "Zeros", "config": {}}, "gamma_initializer": {"class_name": "Ones", "config": {}}, "moving_mean_initializer": {"class_name": "Zeros", "config": {}}, "moving_variance_initializer": {"class_name": "Ones", "config": {}}, "beta_regularizer": null, "gamma_regularizer": null, "beta_constraint": null, "gamma_constraint": null}, "name": "batch_normalization_73", "inbound_nodes": [[["conv2d_75", 0, 0, {}]]]}, {"class_name": "Activation", "config": {"name": "activation_72", "trainable": true, "dtype": "float32", "activation": "relu"}, "name": "activation_72", "inbound_nodes": [[["batch_normalization_73", 0, 0, {}]]]}, {"class_name": "Conv2D", "config": {"name": "conv2d_76", "trainable": true, "dtype": "float32", "filters": 512, "kernel_size": [1, 1], "strides": [1, 1], "padding": "valid", "data_format": "channels_last", "dilation_rate": [1, 1], "groups": 1, "activation": "linear", "use_bias": false, "kernel_initializer": {"class_name": "GlorotUniform", "config": {"seed": null}}, "bias_initializer": {"class_name": "Zeros", "config": {}}, "kernel_regularizer": {"class_name": "L2", "config": {"l2": 9.999999747378752e-05}}, "bias_regularizer": null, "activity_regularizer": null, "kernel_constraint": null, "bias_constraint": null}, "name": "conv2d_76", "inbound_nodes": [[["activation_72", 0, 0, {}]]]}, {"class_name": "Add", "config": {"name": "add_22", "trainable": true, "dtype": "float32"}, "name": "add_22", "inbound_nodes": [[["conv2d_76", 0, 0, {}], ["add_21", 0, 0, {}]]]}, {"class_name": "BatchNormalization", "config": {"name": "batch_normalization_74", "trainable": true, "dtype": "float32", "axis": [3], "momentum": 0.9, "epsilon": 2e-05, "center": true, "scale": true, "beta_initializer": {"class_name": "Zeros", "config": {}}, "gamma_initializer": {"class_name": "Ones", "config": {}}, "moving_mean_initializer": {"class_name": "Zeros", "config": {}}, "moving_variance_initializer": {"class_name": "Ones", "config": {}}, "beta_regularizer": null, "gamma_regularizer": null, "beta_constraint": null, "gamma_constraint": null}, "name": "batch_normalization_74", "inbound_nodes": [[["add_22", 0, 0, {}]]]}, {"class_name": "Activation", "config": {"name": "activation_73", "trainable": true, "dtype": "float32", "activation": "relu"}, "name": "activation_73", "inbound_nodes": [[["batch_normalization_74", 0, 0, {}]]]}, {"class_name": "Conv2D", "config": {"name": "conv2d_77", "trainable": true, "dtype": "float32", "filters": 128, "kernel_size": [1, 1], "strides": [1, 1], "padding": "valid", "data_format": "channels_last", "dilation_rate": [1, 1], "groups": 1, "activation": "linear", "use_bias": false, "kernel_initializer": {"class_name": "GlorotUniform", "config": {"seed": null}}, "bias_initializer": {"class_name": "Zeros", "config": {}}, "kernel_regularizer": {"class_name": "L2", "config": {"l2": 9.999999747378752e-05}}, "bias_regularizer": null, "activity_regularizer": null, "kernel_constraint": null, "bias_constraint": null}, "name": "conv2d_77", "inbound_nodes": [[["activation_73", 0, 0, {}]]]}, {"class_name": "BatchNormalization", "config": {"name": "batch_normalization_75", "trainable": true, "dtype": "float32", "axis": [3], "momentum": 0.9, "epsilon": 2e-05, "center": true, "scale": true, "beta_initializer": {"class_name": "Zeros", "config": {}}, "gamma_initializer": {"class_name": "Ones", "config": {}}, "moving_mean_initializer": {"class_name": "Zeros", "config": {}}, "moving_variance_initializer": {"class_name": "Ones", "config": {}}, "beta_regularizer": null, "gamma_regularizer": null, "beta_constraint": null, "gamma_constraint": null}, "name": "batch_normalization_75", "inbound_nodes": [[["conv2d_77", 0, 0, {}]]]}, {"class_name": "Activation", "config": {"name": "activation_74", "trainable": true, "dtype": "float32", "activation": "relu"}, "name": "activation_74", "inbound_nodes": [[["batch_normalization_75", 0, 0, {}]]]}, {"class_name": "Conv2D", "config": {"name": "conv2d_78", "trainable": true, "dtype": "float32", "filters": 128, "kernel_size": [3, 3], "strides": [1, 1], "padding": "same", "data_format": "channels_last", "dilation_rate": [1, 1], "groups": 1, "activation": "linear", "use_bias": false, "kernel_initializer": {"class_name": "GlorotUniform", "config": {"seed": null}}, "bias_initializer": {"class_name": "Zeros", "config": {}}, "kernel_regularizer": {"class_name": "L2", "config": {"l2": 9.999999747378752e-05}}, "bias_regularizer": null, "activity_regularizer": null, "kernel_constraint": null, "bias_constraint": null}, "name": "conv2d_78", "inbound_nodes": [[["activation_74", 0, 0, {}]]]}, {"class_name": "BatchNormalization", "config": {"name": "batch_normalization_76", "trainable": true, "dtype": "float32", "axis": [3], "momentum": 0.9, "epsilon": 2e-05, "center": true, "scale": true, "beta_initializer": {"class_name": "Zeros", "config": {}}, "gamma_initializer": {"class_name": "Ones", "config": {}}, "moving_mean_initializer": {"class_name": "Zeros", "config": {}}, "moving_variance_initializer": {"class_name": "Ones", "config": {}}, "beta_regularizer": null, "gamma_regularizer": null, "beta_constraint": null, "gamma_constraint": null}, "name": "batch_normalization_76", "inbound_nodes": [[["conv2d_78", 0, 0, {}]]]}, {"class_name": "Activation", "config": {"name": "activation_75", "trainable": true, "dtype": "float32", "activation": "relu"}, "name": "activation_75", "inbound_nodes": [[["batch_normalization_76", 0, 0, {}]]]}, {"class_name": "Conv2D", "config": {"name": "conv2d_79", "trainable": true, "dtype": "float32", "filters": 512, "kernel_size": [1, 1], "strides": [1, 1], "padding": "valid", "data_format": "channels_last", "dilation_rate": [1, 1], "groups": 1, "activation": "linear", "use_bias": false, "kernel_initializer": {"class_name": "GlorotUniform", "config": {"seed": null}}, "bias_initializer": {"class_name": "Zeros", "config": {}}, "kernel_regularizer": {"class_name": "L2", "config": {"l2": 9.999999747378752e-05}}, "bias_regularizer": null, "activity_regularizer": null, "kernel_constraint": null, "bias_constraint": null}, "name": "conv2d_79", "inbound_nodes": [[["activation_75", 0, 0, {}]]]}, {"class_name": "Add", "config": {"name": "add_23", "trainable": true, "dtype": "float32"}, "name": "add_23", "inbound_nodes": [[["conv2d_79", 0, 0, {}], ["add_22", 0, 0, {}]]]}, {"class_name": "BatchNormalization", "config": {"name": "batch_normalization_77", "trainable": true, "dtype": "float32", "axis": [3], "momentum": 0.9, "epsilon": 2e-05, "center": true, "scale": true, "beta_initializer": {"class_name": "Zeros", "config": {}}, "gamma_initializer": {"class_name": "Ones", "config": {}}, "moving_mean_initializer": {"class_name": "Zeros", "config": {}}, "moving_variance_initializer": {"class_name": "Ones", "config": {}}, "beta_regularizer": null, "gamma_regularizer": null, "beta_constraint": null, "gamma_constraint": null}, "name": "batch_normalization_77", "inbound_nodes": [[["add_23", 0, 0, {}]]]}, {"class_name": "Activation", "config": {"name": "activation_76", "trainable": true, "dtype": "float32", "activation": "relu"}, "name": "activation_76", "inbound_nodes": [[["batch_normalization_77", 0, 0, {}]]]}, {"class_name": "Conv2D", "config": {"name": "conv2d_80", "trainable": true, "dtype": "float32", "filters": 128, "kernel_size": [1, 1], "strides": [1, 1], "padding": "valid", "data_format": "channels_last", "dilation_rate": [1, 1], "groups": 1, "activation": "linear", "use_bias": false, "kernel_initializer": {"class_name": "GlorotUniform", "config": {"seed": null}}, "bias_initializer": {"class_name": "Zeros", "config": {}}, "kernel_regularizer": {"class_name": "L2", "config": {"l2": 9.999999747378752e-05}}, "bias_regularizer": null, "activity_regularizer": null, "kernel_constraint": null, "bias_constraint": null}, "name": "conv2d_80", "inbound_nodes": [[["activation_76", 0, 0, {}]]]}, {"class_name": "BatchNormalization", "config": {"name": "batch_normalization_78", "trainable": true, "dtype": "float32", "axis": [3], "momentum": 0.9, "epsilon": 2e-05, "center": true, "scale": true, "beta_initializer": {"class_name": "Zeros", "config": {}}, "gamma_initializer": {"class_name": "Ones", "config": {}}, "moving_mean_initializer": {"class_name": "Zeros", "config": {}}, "moving_variance_initializer": {"class_name": "Ones", "config": {}}, "beta_regularizer": null, "gamma_regularizer": null, "beta_constraint": null, "gamma_constraint": null}, "name": "batch_normalization_78", "inbound_nodes": [[["conv2d_80", 0, 0, {}]]]}, {"class_name": "Activation", "config": {"name": "activation_77", "trainable": true, "dtype": "float32", "activation": "relu"}, "name": "activation_77", "inbound_nodes": [[["batch_normalization_78", 0, 0, {}]]]}, {"class_name": "Conv2D", "config": {"name": "conv2d_81", "trainable": true, "dtype": "float32", "filters": 128, "kernel_size": [3, 3], "strides": [1, 1], "padding": "same", "data_format": "channels_last", "dilation_rate": [1, 1], "groups": 1, "activation": "linear", "use_bias": false, "kernel_initializer": {"class_name": "GlorotUniform", "config": {"seed": null}}, "bias_initializer": {"class_name": "Zeros", "config": {}}, "kernel_regularizer": {"class_name": "L2", "config": {"l2": 9.999999747378752e-05}}, "bias_regularizer": null, "activity_regularizer": null, "kernel_constraint": null, "bias_constraint": null}, "name": "conv2d_81", "inbound_nodes": [[["activation_77", 0, 0, {}]]]}, {"class_name": "BatchNormalization", "config": {"name": "batch_normalization_79", "trainable": true, "dtype": "float32", "axis": [3], "momentum": 0.9, "epsilon": 2e-05, "center": true, "scale": true, "beta_initializer": {"class_name": "Zeros", "config": {}}, "gamma_initializer": {"class_name": "Ones", "config": {}}, "moving_mean_initializer": {"class_name": "Zeros", "config": {}}, "moving_variance_initializer": {"class_name": "Ones", "config": {}}, "beta_regularizer": null, "gamma_regularizer": null, "beta_constraint": null, "gamma_constraint": null}, "name": "batch_normalization_79", "inbound_nodes": [[["conv2d_81", 0, 0, {}]]]}, {"class_name": "Activation", "config": {"name": "activation_78", "trainable": true, "dtype": "float32", "activation": "relu"}, "name": "activation_78", "inbound_nodes": [[["batch_normalization_79", 0, 0, {}]]]}, {"class_name": "Conv2D", "config": {"name": "conv2d_82", "trainable": true, "dtype": "float32", "filters": 512, "kernel_size": [1, 1], "strides": [1, 1], "padding": "valid", "data_format": "channels_last", "dilation_rate": [1, 1], "groups": 1, "activation": "linear", "use_bias": false, "kernel_initializer": {"class_name": "GlorotUniform", "config": {"seed": null}}, "bias_initializer": {"class_name": "Zeros", "config": {}}, "kernel_regularizer": {"class_name": "L2", "config": {"l2": 9.999999747378752e-05}}, "bias_regularizer": null, "activity_regularizer": null, "kernel_constraint": null, "bias_constraint": null}, "name": "conv2d_82", "inbound_nodes": [[["activation_78", 0, 0, {}]]]}, {"class_name": "Add", "config": {"name": "add_24", "trainable": true, "dtype": "float32"}, "name": "add_24", "inbound_nodes": [[["conv2d_82", 0, 0, {}], ["add_23", 0, 0, {}]]]}, {"class_name": "BatchNormalization", "config": {"name": "batch_normalization_80", "trainable": true, "dtype": "float32", "axis": [3], "momentum": 0.9, "epsilon": 2e-05, "center": true, "scale": true, "beta_initializer": {"class_name": "Zeros", "config": {}}, "gamma_initializer": {"class_name": "Ones", "config": {}}, "moving_mean_initializer": {"class_name": "Zeros", "config": {}}, "moving_variance_initializer": {"class_name": "Ones", "config": {}}, "beta_regularizer": null, "gamma_regularizer": null, "beta_constraint": null, "gamma_constraint": null}, "name": "batch_normalization_80", "inbound_nodes": [[["add_24", 0, 0, {}]]]}, {"class_name": "Activation", "config": {"name": "activation_79", "trainable": true, "dtype": "float32", "activation": "relu"}, "name": "activation_79", "inbound_nodes": [[["batch_normalization_80", 0, 0, {}]]]}, {"class_name": "Conv2D", "config": {"name": "conv2d_83", "trainable": true, "dtype": "float32", "filters": 128, "kernel_size": [1, 1], "strides": [1, 1], "padding": "valid", "data_format": "channels_last", "dilation_rate": [1, 1], "groups": 1, "activation": "linear", "use_bias": false, "kernel_initializer": {"class_name": "GlorotUniform", "config": {"seed": null}}, "bias_initializer": {"class_name": "Zeros", "config": {}}, "kernel_regularizer": {"class_name": "L2", "config": {"l2": 9.999999747378752e-05}}, "bias_regularizer": null, "activity_regularizer": null, "kernel_constraint": null, "bias_constraint": null}, "name": "conv2d_83", "inbound_nodes": [[["activation_79", 0, 0, {}]]]}, {"class_name": "BatchNormalization", "config": {"name": "batch_normalization_81", "trainable": true, "dtype": "float32", "axis": [3], "momentum": 0.9, "epsilon": 2e-05, "center": true, "scale": true, "beta_initializer": {"class_name": "Zeros", "config": {}}, "gamma_initializer": {"class_name": "Ones", "config": {}}, "moving_mean_initializer": {"class_name": "Zeros", "config": {}}, "moving_variance_initializer": {"class_name": "Ones", "config": {}}, "beta_regularizer": null, "gamma_regularizer": null, "beta_constraint": null, "gamma_constraint": null}, "name": "batch_normalization_81", "inbound_nodes": [[["conv2d_83", 0, 0, {}]]]}, {"class_name": "Activation", "config": {"name": "activation_80", "trainable": true, "dtype": "float32", "activation": "relu"}, "name": "activation_80", "inbound_nodes": [[["batch_normalization_81", 0, 0, {}]]]}, {"class_name": "Conv2D", "config": {"name": "conv2d_84", "trainable": true, "dtype": "float32", "filters": 128, "kernel_size": [3, 3], "strides": [1, 1], "padding": "same", "data_format": "channels_last", "dilation_rate": [1, 1], "groups": 1, "activation": "linear", "use_bias": false, "kernel_initializer": {"class_name": "GlorotUniform", "config": {"seed": null}}, "bias_initializer": {"class_name": "Zeros", "config": {}}, "kernel_regularizer": {"class_name": "L2", "config": {"l2": 9.999999747378752e-05}}, "bias_regularizer": null, "activity_regularizer": null, "kernel_constraint": null, "bias_constraint": null}, "name": "conv2d_84", "inbound_nodes": [[["activation_80", 0, 0, {}]]]}, {"class_name": "BatchNormalization", "config": {"name": "batch_normalization_82", "trainable": true, "dtype": "float32", "axis": [3], "momentum": 0.9, "epsilon": 2e-05, "center": true, "scale": true, "beta_initializer": {"class_name": "Zeros", "config": {}}, "gamma_initializer": {"class_name": "Ones", "config": {}}, "moving_mean_initializer": {"class_name": "Zeros", "config": {}}, "moving_variance_initializer": {"class_name": "Ones", "config": {}}, "beta_regularizer": null, "gamma_regularizer": null, "beta_constraint": null, "gamma_constraint": null}, "name": "batch_normalization_82", "inbound_nodes": [[["conv2d_84", 0, 0, {}]]]}, {"class_name": "Activation", "config": {"name": "activation_81", "trainable": true, "dtype": "float32", "activation": "relu"}, "name": "activation_81", "inbound_nodes": [[["batch_normalization_82", 0, 0, {}]]]}, {"class_name": "Conv2D", "config": {"name": "conv2d_85", "trainable": true, "dtype": "float32", "filters": 512, "kernel_size": [1, 1], "strides": [1, 1], "padding": "valid", "data_format": "channels_last", "dilation_rate": [1, 1], "groups": 1, "activation": "linear", "use_bias": false, "kernel_initializer": {"class_name": "GlorotUniform", "config": {"seed": null}}, "bias_initializer": {"class_name": "Zeros", "config": {}}, "kernel_regularizer": {"class_name": "L2", "config": {"l2": 9.999999747378752e-05}}, "bias_regularizer": null, "activity_regularizer": null, "kernel_constraint": null, "bias_constraint": null}, "name": "conv2d_85", "inbound_nodes": [[["activation_81", 0, 0, {}]]]}, {"class_name": "Add", "config": {"name": "add_25", "trainable": true, "dtype": "float32"}, "name": "add_25", "inbound_nodes": [[["conv2d_85", 0, 0, {}], ["add_24", 0, 0, {}]]]}, {"class_name": "BatchNormalization", "config": {"name": "batch_normalization_83", "trainable": true, "dtype": "float32", "axis": [3], "momentum": 0.9, "epsilon": 2e-05, "center": true, "scale": true, "beta_initializer": {"class_name": "Zeros", "config": {}}, "gamma_initializer": {"class_name": "Ones", "config": {}}, "moving_mean_initializer": {"class_name": "Zeros", "config": {}}, "moving_variance_initializer": {"class_name": "Ones", "config": {}}, "beta_regularizer": null, "gamma_regularizer": null, "beta_constraint": null, "gamma_constraint": null}, "name": "batch_normalization_83", "inbound_nodes": [[["add_25", 0, 0, {}]]]}, {"class_name": "Activation", "config": {"name": "activation_82", "trainable": true, "dtype": "float32", "activation": "relu"}, "name": "activation_82", "inbound_nodes": [[["batch_normalization_83", 0, 0, {}]]]}, {"class_name": "AveragePooling2D", "config": {"name": "average_pooling2d_1", "trainable": true, "dtype": "float32", "pool_size": [8, 8], "padding": "valid", "strides": [8, 8], "data_format": "channels_last"}, "name": "average_pooling2d_1", "inbound_nodes": [[["activation_82", 0, 0, {}]]]}, {"class_name": "Flatten", "config": {"name": "flatten_1", "trainable": true, "dtype": "float32", "data_format": "channels_last"}, "name": "flatten_1", "inbound_nodes": [[["average_pooling2d_1", 0, 0, {}]]]}, {"class_name": "Dense", "config": {"name": "dense_1", "trainable": true, "dtype": "float32", "units": 2, "activation": "linear", "use_bias": true, "kernel_initializer": {"class_name": "GlorotUniform", "config": {"seed": null}}, "bias_initializer": {"class_name": "Zeros", "config": {}}, "kernel_regularizer": {"class_name": "L2", "config": {"l2": 0.0005000000237487257}}, "bias_regularizer": null, "activity_regularizer": null, "kernel_constraint": null, "bias_constraint": null}, "name": "dense_1", "inbound_nodes": [[["flatten_1", 0, 0, {}]]]}, {"class_name": "Activation", "config": {"name": "activation_83", "trainable": true, "dtype": "float32", "activation": "softmax"}, "name": "activation_83", "inbound_nodes": [[["dense_1", 0, 0, {}]]]}], "input_layers": [["input_2", 0, 0]], "output_layers": [["activation_83", 0, 0]]}, "keras_version": "2.4.0", "backend": "tensorflow"}